cnn_dta.pth (torch, 27399 bytes, 9 tensors)

data_pre.embed_drug.weight f4 [64, 16]
00000000: 0000 0000 0000 0000 0000 0000 0000 0000
00000010: 0000 0000 0000 0000 0000 0000 0000 0000
00000020: 0000 0000 0000 0000 0000 0000 0000 0000
00000030: 0000 0000 0000 0000 0000 0000 0000 0000
00000040: 3395 9e3b ef4d b8bd 1c38 dfbc ad10 523d
00000050: 4fe6 673d c67f 52bc 500b 813c 1968 2c3d
00000060: d5c5 8a3c f311 a63d 8ae0 67bd 7d85 5cbd
00000070: 39f0 f3bb 0ac7 83bb fdcc 97bb d45b 043d
00000080: e304 0bbf 07f7 1640 3f0b f23f 6d6f 2ebd
00000090: 1aa3 fcbe 32d7 80bf 043a 18c0 403e f7be
000000a0: 1e96 8b3f e702 3d3d 59fd 9dbf 30eb a7bf
000000b0: 982d 223f 849e 9cbf 976b eb3f 683d 01bf
000000c0: fbdc 9fbd fee6 b53e 2212 1740 d91d db3f
000000d0: 6b53 953f 3d85 923f f356 2d3f 8a7c 933f
000000e0: 40a8 cfbf 2eda 2b40 bf1f f33f edaf 70bf
000000f0: aa93 013e 052e 303f 83c1 4d40 c2f0 fbbe
00000100: dd7a 4a3e 2cfb 0f3f e0c9 333e 69b2 3fbc
00000110: fe27 6ebf 4b84 513e 012d e5bd d134 32bd
00000120: be57 8dbd 14fa 833e 37d3 e9be 0953 183f
00000130: c8f0 903c 86bd be3e 8f3c 4fbe 149d 17be
00000140: 6605 0abf b36c 843f dc44 223e 86b6 6c3f
00000150: a275 df3e 3a12 b03d 4acd 7c3d 998d 953e
00000160: 2979 f2be 37b8 b8be e325 14be 3326 f33e
00000170: 7439 bb3f 00fe a33e 3b4d c83f 3feb b7bf
00000180: 9df3 1d3f 96a4 8b3d 21b7 2c3e 6a69 fe3c
00000190: c378 b33b 0054 b3be e88a 07be 980e a1bf
000001a0: 12d7 1f3f c521 733f 4efd f1be c7d2 853f
000001b0: 96ba 92be d300 e2be 5f15 00c0 1148 293f
000001c0: d091 f6be 84f6 d93f f068 0a3f da72 bc3f
000001d0: a35d 5abf 260d 113f df51 183f 6a86 843d
000001e0: e8d8 a7bf ff14 523e 58ce a63f 96bd f6be
000001f0: 1981 bbbd e12a f2be 5209 703f 0af4 9c3e
00000200: 6652 a6bc d9df 96bc 711b 1dbb 3179 0bbd
00000210: 88bc 1c3d 886a 7f3b 7cad 393d 70ef 823b
00000220: 234c 373b 605a 563c 236b 87bb 0ab3 afbc
00000230: e0cf 523c eede 913c 9e1e d2bb 7289 0f3c
00000240: 0dd0 f8be c290 263e 45d5 e0be 2767 543f
00000250: 3d52 373f 399f 1bbe 6d8d 41bf ce30 c4be
00000260: 4a5c 1ebd 56dc 60be 8a55 553f 29ac 49bf
00000270: 44c7 e4bf cd60 f63e 6487 16bf e4c6 0cc0
00000280: 1bd6 81bf 2aa2 a13f 7123 50bf d5a7 8c3e
00000290: 54ac e03f 7194 9abf 464d 58bc ec09 c93f
000002a0: 1fa0 fabf 623c f03f b7ca 29bf 7551 d63e
000002b0: 88c3 303f 590c 25c0 c8fb aa3e 8a31 f8be
000002c0: f106 1cbf ffdc 9bbe ef92 13bf 2b48 123f
000002d0: f373 be3e 42b1 0ebb 4685 9dbe ee09 0d3e
000002e0: fec5 88bd 8cad 533f 90b4 083e 6e13 f3bc
000002f0: c972 873f 92d1 3bbf b28c 093f 9b42 e53c
00000300: 4336 29bf 0abc 113e ae58 5bbe 0ea0 8bbe
00000310: f2e1 94be e7b3 dc3d 5f07 023e 1cda a4bd
00000320: a5a7 cdbd a65f 993e 73df 6b3d beb1 fdbe
00000330: 6877 9e3c 0925 9d3e 9a3e 1b3f c98c 623c
00000340: e73b 84bf e59f 2c3f 894b 973f 3faf af3e
00000350: d2e6 bb3d 0a9b d5bf 7932 b9be afcb 0cbf
00000360: 669d 753f 7fd7 96bf 96e2 6d3f 6077 5d3f
00000370: 85fb efbf 2e6d 503f 22b6 57bf 3c44 8a3f
00000380: 2f4a 573e e403 6f3e a8a8 41be c673 16bf
00000390: 278f ce3d 3688 1d3e 224d efbe fade 4a3e
000003a0: cabe bb3e 6e43 963e 1528 0abe 9fa3 4cbd
000003b0: 09d9 39be 0ab5 cdbd 8797 fe3e 0310 cb3d
000003c0: 3e03 0dbf f207 42be 2984 abbc 53c1 c8be
000003d0: 5201 3f3e da17 40be bb99 03be 7d93 1c3f
000003e0: e795 d13f 9d6e f73e 6638 cdbe d078 173e
000003f0: 8ecc 64be f35f 0b3f 677f 7d3e 61bc a5be
0.0 0.0 0.0 0.0 0.0 0.0 0.0 0.0
0.0 0.0 0.0 0.0 0.0 0.0 0.0 0.0
0.0048395633 -0.0899924 -0.027248435 0.051285435 0.056616124 -0.012847846 0.015752465 0.042091463
0.016940037 0.08108892 -0.05661062 -0.05383824 -0.0074444083 -0.00402153 -0.004632591 0.032314137
-0.5430433 2.3588274 1.8909682 -0.042586733 -0.49343187 -1.0065672 -2.378541 -0.4828968
1.0905187 0.046145346 -1.234294 -1.3118649 0.6335082 -1.2235875 1.8392209 -0.50484324
-0.078058206 0.35527796 2.3604817 1.7118484 1.1666082 1.1446911 0.677108 1.1522381
-1.6223221 2.6851916 1.8994063 -0.9401844 0.12653986 0.6882022 3.214936 -0.4920712
0.19773431 0.5624263 0.17557478 -0.011700251 -0.93029773 0.20460622 -0.111902244 -0.0435074
-0.06901501 0.25776732 -0.45668957 0.595017 0.017692938 0.3725397 -0.20237945 -0.14806014
-0.5391449 1.0345672 0.1584658 0.9246601 0.43644434 0.085972264 0.061719216 0.29209593
-0.47358063 -0.36078045 -0.14467578 0.4749008 1.4626908 0.32029724 1.5648569 -1.4368666
0.6169985 0.06818502 0.16866733 0.031056125 0.0054770424 -0.35025024 -0.13236582 -1.2582579
0.62437546 0.94973403 -0.4726357 1.0454949 -0.2865798 -0.44141254 -2.0013044 0.6612559
-0.4815812 1.7028356 0.5406637 1.472255 -0.8529913 0.5666069 0.59499925 0.0647095
-1.311307 0.20515822 1.3031721 -0.48191518 -0.09155483 -0.4729834 0.9376422 0.30654937
-0.020302963 -0.018417286 -0.0023972655 -0.034051124 0.038265735 0.003897341 0.045331463 0.0039958283
0.0027968965 0.0130830705 -0.0041326447 -0.021447677 0.012866944 0.017806496 -0.0064123413 0.008760797
-0.4859623 0.16266158 -0.43912712 0.829699 0.7160986 -0.15197457 -0.75606424 -0.38318485
-0.038662232 -0.21959051 0.8333365 -0.7877832 -1.7873311 0.48120728 -0.5880034 -2.1996393
-1.0143465 1.2627614 -0.8130408 0.27471796 1.755259 -1.2076551 -0.013202017 1.5706153
-1.9580115 1.8768427 -0.66324943 0.41859022 0.69048357 -2.5788786 0.3339522 -0.48475295
-0.6094809 -0.30442044 -0.5764608 0.5714137 0.37197837 -0.0021773134 -0.30765742 0.13773319
-0.06678389 0.82686687 0.13350129 -0.02967235 1.0581905 -0.73366654 0.5373031 0.027985862
-0.6609842 0.14231887 -0.21420547 -0.2727055 -0.29078633 0.10776501 0.12698124 -0.080494136
-0.10041741 0.29955786 0.057586145 -0.4954967 0.019344047 0.30692318 0.606424 0.013827511
-1.0330781 0.6743148 1.1819927 0.3431339 0.09174885 -1.6687939 -0.3617132 -0.54998296
0.95943296 -1.1784514 0.9292387 0.86510277 -1.8748633 0.81416595 -0.8426229 1.0802073
0.21024393 0.23341328 -0.18911994 -0.58770406 0.10085898 0.15383992 -0.46738535 0.19811621
0.36668998 0.2934832 -0.13491853 -0.04996073 -0.18149199 -0.10044296 0.4972498 0.09915163
-0.5508307 -0.18948343 -0.020937042 -0.39209995 0.18652847 -0.18759099 -0.12851612 0.6116255
1.6373872 0.4832658 -0.4008209 0.1479218 -0.22343656 0.5444328 0.24755631 -0.32370284

data_pre.embed_target.weight f4 [25, 16]
00000000: 0000 0000 0000 0000 0000 0000 0000 0000
00000010: 0000 0000 0000 0000 0000 0000 0000 0000
00000020: 0000 0000 0000 0000 0000 0000 0000 0000
00000030: 0000 0000 0000 0000 0000 0000 0000 0000
00000040: 4f4e d93d 76b7 433d 267d 18bd d5b5 d4bd
00000050: d3d7 3fbd 83e1 063d 7e67 433c d1e2 063f
00000060: ce08 03bc 18d0 fa3b e31a bd3c 589b 06bc
00000070: f73f cf3c 8fa3 4f3c e439 74bd b9e0 273d
00000080: f002 bebe 94b1 96be 1486 81be 2607 bfbe
00000090: e0d8 8fbc 2e28 d5be fd03 24be be3e 883c
000000a0: ee89 17be d503 fc3c 2d4d f03d 61fa 50bd
000000b0: 1ab8 d6bd 585c 52be 6902 0cbd e72a 5dbc
000000c0: 8bad 0140 9fb1 29be f04f 133e 757d fdbf
000000d0: d625 0fbf cfea 82bf 1d7e 3bbf 6dac efbd
000000e0: f2f6 97bf f51b a2be ec75 1bc0 e5ea 213e
000000f0: f918 813e 7682 1c3e 9312 e7be 74e5 de3f
00000100: 14b5 b6bc f9fe 84b9 2819 01bc dbdd 223c
00000110: ace0 003d 6d06 953b ca25 55bd 07bc 08bd
00000120: ef50 4e3b 01ef 023b d84d c8bc c4d3 5bbd
00000130: d116 543b 961b 983c cb35 96bc 5231 df3c
00000140: a5b5 df3d 692b 4e3d ce27 9cba 99b9 0fbd
00000150: 9ac8 1c3d 7905 d73c dd12 cabc b229 4a3c
00000160: 1b2b 903c bc79 493d 78ac 723d c2bc 5d3c
00000170: 349f cabc ab5d d13a 60a3 433f 54d0 99bd
00000180: dd1f 63be 03b7 b5bc c82a bd3e 9229 f8bd
00000190: 682d 95bb f9db d53c 5560 573c 594b 883c
000001a0: 716f 0bbd a4b2 613e ce1c 79bc 1a71 99bb
000001b0: 3727 8c3c 1137 67bc 794e eb3c cd5e 8a3e
000001c0: 9ac2 98bd 2850 9fbb bba3 12bd 662c 813d
000001d0: 7304 f53c 3a7c f53c a19b 2d3d 77d3 a13c
000001e0: 6f78 753c 85eb beba 88e2 053e 26ee dabd
000001f0: 2fe7 7e3e 4720 28be 4899 4abd 2e27 aebb
00000200: 865c 4c3c e57e e3bc a120 94ba 31a8 45bc
00000210: 7ccf d4bc 0ed5 c93b fe8a 143c e2ec b83b
00000220: bd77 f23b babf b8bc bba4 bfbc ec84 dc3c
00000230: 9822 ce3b 365b 1fbd 205d 583c b950 053c
00000240: 7e12 aa3e 3578 c83c ce59 f7be 1b61 a43e
00000250: 1190 c63a f945 74be 981a 943d 41b6 64bd
00000260: 30a6 58b9 33f9 7fbb 1674 ec3c 4c3a 6d3d
00000270: 30b5 6c3c 70bf 953b 06f4 243e 2aa1 363f
00000280: 497c c9be cd82 b2be e4f0 2abe dcb8 1d3d
00000290: b964 953d 5ca0 b03d d646 d43d 78b5 383e
000002a0: 8dc5 683d 0274 233d 9a08 123d 208d 8abd
000002b0: 7ba8 08be f920 583d c62a 773d e769 d63d
000002c0: 80f1 0c3f 3239 a8be cb5d d73e 0d1a 3abe
000002d0: 78e9 223d 15cf fabd c3de 5a3d 43c9 a7bd
000002e0: abe0 153e b9e9 19be 87a0 a33e a5e1 5fbe
000002f0: 87a3 10be e112 0b3e d305 4dbd d5c6 613e
00000300: 9701 79be bfca 7e3e 82c7 5cbd 8d1b 68bc
00000310: 1734 e9bc 5e20 a0bb e3ae 953d 6bb4 f5bc
00000320: 7239 de3c 356a 39bc 9dc4 e13d 412e 10bd
00000330: d4df 92bd 204c 0c3d fce5 f9bb 95cf 25bb
00000340: 5533 4dbf 150f 54bf f1dd 38be be14 c63f
00000350: df13 6dbc c6d2 79be 1013 99bf cf9b 073f
00000360: de59 883e 5fd4 253f 2a23 afbf 2ed8 17bf
00000370: 90ba f23e 777b 7b3f 8ee2 d1be c09f 79bf
00000380: dffb 22bc 6f9c a9b9 542a fabc e275 e83c
00000390: b409 de3d 538a 44bc af5c c13d 4e85 d23d
000003a0: 5946 223d d223 6b3d 4a7f 4a3e 5460 b33e
000003b0: d93f c63c 6c6e a9bc 11ce a4bd 39b0 a4bd
000003c0: 4379 ddbc c147 cd3c 17a2 333c 59ff 3f3d
000003d0: 2e03 613c b470 aeb9 8f96 93bb 0839 9bbc
000003e0: ac86 093c 34b3 d23b 0253 333d 9c0f 9fbb
000003f0: 77a7 2abb 3cae 3c3d a7f4 aa3d a72f f3bc
0.0 0.0 0.0 0.0 0.0 0.0 0.0 0.0
0.0 0.0 0.0 0.0 0.0 0.0 0.0 0.0
0.10610639 0.047782384 -0.037228726 -0.10386244 -0.046836685 0.03292991 0.01192653 0.52689844
-0.007997705 0.0076542012 0.02308411 -0.008215748 0.025299056 0.012673273 -0.05962552 0.040985797
-0.37111616 -0.29432356 -0.25297606 -0.3731014 -0.017559469 -0.41632217 -0.16017146 0.01663148
-0.1479871 0.030763546 0.1173347 -0.05102003 -0.10484333 -0.20543039 -0.034181986 -0.013498998
2.0262172 -0.16571663 0.14385962 -1.9803911 -0.5591711 -1.0227908 -0.7323931 -0.117028095
-1.1872237 -0.31661955 -2.4290724 0.15812261 0.25214365 0.15284142 -0.45131359 1.7413774
-0.022303142 -0.0002536697 -0.007879533 0.00994059 0.031464264 0.004547885 -0.05203799 -0.03338244
0.0031481346 0.0019978883 -0.024451181 -0.053668752 0.0032362232 0.018567842 -0.018336197 0.027245197
0.10923318 0.050334368 -0.0011913718 -0.03508911 0.038277246 0.026247727 -0.024667198 0.0123390425
0.01759868 0.04918836 0.05924651 0.013533773 -0.024734117 0.001597335 0.76421165 -0.075104386
-0.22180124 -0.022181993 0.36946702 -0.12117304 -0.004552532 0.026105868 0.013145526 0.016637491
-0.034041826 0.22040802 -0.0152046215 -0.004682672 0.017108543 -0.01411225 0.028723942 0.27025452
-0.07458992 -0.0048618503 -0.035800677 0.063072965 0.029909348 0.029966462 0.042384747 0.019754155
0.014982327 -0.001456604 0.13074696 -0.106899545 0.24892877 -0.16418563 -0.049462587 -0.005314729
0.012473231 -0.027770469 -0.0011301228 -0.012064026 -0.025977843 0.0061594313 0.009066341 0.005643473
0.007399528 -0.02255236 -0.02339398 0.02691885 0.006290745 -0.038905345 0.0132057965 0.008136922
0.33217233 0.024471382 -0.48310703 0.32105336 0.0015149136 -0.23854817 0.07231635 -0.055837873
-0.00020661275 -0.0039058446 0.028863948 0.057916924 0.014447495 0.0045699403 0.16108713 0.71339667
-0.39352635 -0.34865418 -0.16693455 0.038506374 0.07294602 0.08624336 0.103650734 0.18037975
0.056829024 0.039905556 0.035652734 -0.06765199 -0.1334552 0.05276582 0.060343526 0.10469418
0.55056 -0.32856137 0.42063746 -0.18174 0.039773434 -0.12246529 0.0534351 -0.081926845
0.14636485 -0.15030564 0.3195841 -0.2186342 -0.1412488 0.1358142 -0.050054383 0.22048505
-0.24317013 0.24882029 -0.053901203 -0.014166725 -0.028467221 -0.004886671 0.073087476 -0.029993257
0.027127001 -0.011316826 0.11023829 -0.03520036 -0.07171598 0.034252286 -0.007626293 -0.002530073
-0.8015645 -0.82835513 -0.18053414 1.547508 -0.01447007 -0.2439681 -1.1958942 0.5297212
0.26631063 0.6477718 -1.3682606 -0.5931424 0.4740796 0.9823527 -0.4099316 -0.97509384
-0.009947746 -0.00032350744 -0.030537762 0.028376523 0.108416945 -0.01199587 0.09441506 0.10279332
0.03961787 0.057407208 0.1977512 0.3503443 0.024200367 -0.020682536 -0.080471165 -0.08041424
-0.027035361 0.025058629 0.010963938 0.046874378 0.013733668 -0.00033271837 -0.004504032 -0.018948093
0.008393925 0.006430054 0.043780334 -0.0048541557 -0.0026039758 0.0460646 0.08347445 -0.029685808

drugconv1d.weight f4 [4, 16, 4]
00000000: a487 4dbb af9f 80bd feb7 16be 42e5 75be
00000010: e236 473f 7ba5 adbe edf6 9ebd 0aad 04be
00000020: dbcd e73b f061 933e 603b 433e 6c63 0dbe
00000030: fbab 743d 4f34 3abe 1e63 2b3e 402b f3be
00000040: 1ab1 aa3d 4be7 babe 4483 afbe 4441 0c3f
00000050: 91fc 773d 7165 98bd dd38 e3be f140 943e
00000060: dcd2 35be 58ec 233e fc99 ff3c 4b28 29be
00000070: 07cf cabe f713 32bd 51e1 373e c4e8 483e
00000080: f686 053e 8e0c 82be 3427 ccbe 756e e2be
00000090: da02 18be eb18 833e d7cb 6b3d 40dd eabe
000000a0: ac01 9b3d 2898 89be 36e6 f1bc 64c9 69be
000000b0: 2fc4 723e 35dd f73d 6785 bcbe b5be b5bc
000000c0: 9b77 94bd 4b14 163f 40de c03d 0142 6cbe
000000d0: 7871 b2be 7671 9bbd abef d63d c8ef 323e
000000e0: b321 ba3e c3ed a23e 32a9 08bf ab12 273f
000000f0: e3f3 acbe ada8 733f c2a7 12bf 9347 fa3d
00000100: 3fdf 0c3e 07a9 b93e 70e1 4b3c a7ca e7bc
00000110: 63cf 3ebe 8b19 7b3e 437a cdbc c28f dcbc
00000120: aadb 213e ffb8 16be 707c 413e 1d47 743e
00000130: 0dfb fcbc 9dd6 6dbc c410 2ebe 8be6 693d
00000140: 1b5c c43d 6498 c33e d73e 2d3c 7729 223e
00000150: 8f27 8ebe d912 94be 20c4 103e 744f 853e
00000160: 46c8 78be c397 01be 4635 d3bc 7db7 703d
00000170: da05 b7bd fc24 4b3e 6419 be3c 723c b73e
00000180: 413d 3bbf e909 403e 1220 04be 7a96 a33e
00000190: 4f32 16be 949b 2ebf 8984 4f3e 648a aa3e
000001a0: 8a84 1ebd 346d 923e c684 1ebf f5e5 c43e
000001b0: 4e19 8bbe 2777 523e 0f17 febd d77d d6bd
000001c0: 7540 ad3e 2b90 363e 8610 4ebf 2f03 f9bc
000001d0: 2960 14be 478c 7e3e fa21 33be a014 433e
000001e0: 38c1 99bc 082b 4abf 94d6 7cbe cf04 9d3e
000001f0: a4c7 103c 84a5 c23d b50c 4dbf 1636 673c
00000200: bb8d 7f3b 6d39 76be 3fe0 d1be fdaf 933d
00000210: ebf4 62be 50a3 2a3e 54cf 073d b2cb 833b
00000220: d53e 2bbe 212e 5cbe 70a1 9b3d 3d6e c3bd
00000230: c420 af3d 7f75 24be d224 b7be 8616 8cbe
00000240: 8a7c a7bd a726 673e 5567 1c3e 5968 83be
00000250: ecb2 1a3e 5fb5 09be 7a76 c8be 1f9f 39be
00000260: ca97 acbd 835a 13be afea 8bbe dbff b73e
00000270: 5715 f93e 5e85 3a3d bad4 ac3d a3ea 823d
00000280: fd94 c93e 1391 703b 7b2a 19be a37b 1fbe
00000290: 02af 1abe a89e a33e fa3a a5be 2e47 2d3d
000002a0: 4d44 f33e 4428 c1bd c94a a13e 322a cb3d
000002b0: a46d 543d c159 6a3d 69cd 51bd f363 bd3e
000002c0: 4368 5c3d 1abf 3e3e 3fb5 95be 3266 29be
000002d0: 2fb1 3d3e 3c63 6abd 43ee 66be 7c7d 9a3c
000002e0: 963f b2bd 30bc 9dbd 436e 30be 57ff 89be
000002f0: cc06 1bbd c269 d4bc def7 0cbd 19e0 8e3d
00000300: 6031 413d 6ea8 483e 818c 763d 1765 eabc
00000310: 40fc 73be d0f0 273e c2f9 493b 3bf7 d7be
00000320: ae52 e1be 11cd 9ebe 1aa1 023d 9c90 3cbd
00000330: 05a2 9abe 4fbb 413e f0cf 0e3e 65f1 37bc
00000340: d1ad fe3c 9145 143f 5647 ff3d 1e0a 903e
00000350: b9f9 73be eb85 b83d 4835 a43e 1f2f ed3e
00000360: f576 c03e b65f 3d3e 031c bebe 8437 613e
00000370: 9a12 74be adb7 b0bd 23ba 72bd 6821 f3bc
00000380: 7a69 893e 16ee 863d 7d76 c9bb cc1b 5abe
00000390: 5db0 81be 49e5 1abe 38df fc3e ec26 873d
000003a0: 027b 973c c55d dfbd dc85 093c 097d 8cbe
000003b0: a54d a63d 5582 12be 0577 6bbe 317e 1e3e
000003c0: d912 763e 5b54 ccbd 88e0 a0be 0e5a 9f3e
000003d0: d627 1c3a 7196 87be 08ad fabe 91e4 81be
000003e0: a2a1 443e 8b07 5cb9 ccaa 0dbe 7948 93be
000003f0: 9898 74be 764b ba3d dc78 5b3e a6ea 1a3d
-0.0031361366 -0.06280457 -0.14718625 -0.24013236 0.7781812 -0.33915314 -0.07761941 -0.12956634
0.0070741004 0.28785658 0.19065619 -0.13807458 0.059734326 -0.18184017 0.16737029 -0.47493935
0.08334561 -0.36504588 -0.34279835 0.5478709 0.0605436 -0.074412234 -0.4437932 0.28955796
-0.17756218 0.16008127 0.031201355 -0.16519277 -0.39611074 -0.04347607 0.17957045 0.19620043
0.13039765 -0.25400203 -0.3987366 -0.44224897 -0.14844838 0.25604948 0.057567444 -0.45871925
0.07568678 -0.26873899 -0.029528718 -0.2283073 0.2370765 0.12102739 -0.36820528 -0.022185663
-0.072493754 0.58624715 0.09417391 -0.23072053 -0.34852195 -0.0759 0.10494932 0.17474282
0.36353835 0.31822023 -0.5338317 0.6526286 -0.3377982 0.95179254 -0.5728723 0.12220683
0.13757037 0.3626177 0.012443885 -0.028294874 -0.18633799 0.24521463 -0.025082713 -0.026924018
0.15806451 -0.14719008 0.18895125 0.23855253 -0.03088143 -0.0145165 -0.16998583 0.05710463
0.0958788 0.38202202 0.010574064 0.1583613 -0.27764556 -0.2892063 0.14137316 0.2603718
-0.24295148 -0.12655549 -0.025782239 0.058768738 -0.08936663 0.19838327 0.023205467 0.35788304
-0.7314034 0.1875378 -0.12902859 0.31950742 -0.14667629 -0.68206143 0.20265402 0.3330871
-0.038700618 0.2859894 -0.61921346 0.38456693 -0.27167743 0.20553266 -0.12406742 -0.10473221
0.3383824 0.17828433 -0.8049396 -0.030397026 -0.14489807 0.24858199 -0.1749343 0.19050837
-0.018768892 -0.7897191 -0.2469123 0.3066773 0.0088366605 0.09504226 -0.80097514 0.014112016
0.003899439 -0.24045344 -0.409914 0.072113015 -0.22163741 0.16663861 0.033156708 0.004022085
-0.16723187 -0.21501972 0.07599151 -0.09542511 0.085511714 -0.16060446 -0.3577028 -0.27360934
-0.08178051 0.22573338 0.15273793 -0.25665548 0.15107316 -0.13448094 -0.3915289 -0.18127106
-0.08427389 -0.14389996 -0.27327487 0.3593739 0.48649094 0.045537345 0.08439012 0.0639241
0.39371482 0.0036707565 -0.14957611 -0.15574507 -0.15105823 0.31956983 -0.32271558 0.04230421
0.47513047 -0.09431508 0.3150237 0.099201575 0.051862374 0.057214502 -0.051221285 0.36990318
0.05381037 0.18627587 -0.29239842 -0.1654289 0.18524621 -0.057223544 -0.22551827 0.018858664
-0.08703534 -0.077019095 -0.17229562 -0.2695262 -0.03784828 -0.025929336 -0.034416072 0.06976337
0.04716623 0.19595501 0.06019259 -0.028612657 -0.23826694 0.16400456 0.0030819033 -0.4218081
-0.44008392 -0.31015828 0.03189192 -0.046036348 -0.30201736 0.18919109 0.1394651 -0.011226987
0.031088741 0.5791865 0.12464778 0.2813272 -0.2382573 0.09009918 0.320719 0.46325013
0.37590757 0.18493542 -0.37130746 0.21993834 -0.23835221 -0.086287834 -0.059259545 -0.029679015
0.26838285 0.0658838 -0.006148158 -0.21299666 -0.25329867 -0.15126528 0.49389052 0.06599221
0.018491272 -0.10906557 0.008393731 -0.27439144 0.08120278 -0.1430753 -0.22994621 0.15477826
0.24030627 -0.09977027 -0.31421304 0.31123394 0.0005956864 -0.26481965 -0.48960137 -0.25369695
0.19202283 -0.00020983645 -0.13834685 -0.2876623 -0.23886335 0.09096424 0.21432823 0.037821434

drugconv1d.bias f4 [4]
00000000: ee3a 5940 cf9e 1bc0 df0b c23e 5818 bfbe
3.3942218 -2.431568 0.37899682 -0.3732326

targetconv1d.weight f4 [4, 16, 4]
00000000: 6eef fa3e 09a4 ad3d 4047 6ebd 539c 9c3d
00000010: cb9f b63d bd10 873e 6084 fe3c 204c 81bc
00000020: 102e 29bd 997b 57bc d501 353f b81c 51be
00000030: 0072 823d 69f1 4f3d f161 a13c 5e5e 853e
00000040: 2f48 0abe 996b 67be dd2c 88bd 4fdf 1cbe
00000050: 263a 863e 0fa4 563e b73a 813d 33a1 3c3e
00000060: 41ba cabd da6d 9dbd 894e b6bc c14a 983e
00000070: 627b 383b ffa2 12bd a007 96be d572 edbe
00000080: 0ed9 063d 83d7 28bd 41ef 813d 5fea 6b3e
00000090: 93f5 a83d 9579 dfbb 33b9 1b3d d1f9 043d
000000a0: 4d2b 093d 0e68 8cbd eefc 04bc 457a 45be
000000b0: bc1d 5b3d 3cbf 05be 0057 8ebd 1733 debb
000000c0: 5484 3abd d2c7 063e 4e94 fd3d d3ef 0dbc
000000d0: b302 173d 0a72 6abc 7cdb 223e 0d91 e4bd
000000e0: f7e6 6a3d a87b 39be 906f 283e 7f32 c0bd
000000f0: ed67 703d 4de0 8fbd 53cc 14be 5240 b3bd
00000100: 8f7c febd 8100 c5bd 5fe0 40bd bcaf 5dbd
00000110: 7caf 1f3e a6bc 2cbe ba6a 1c3c 0e75 20bd
00000120: 84f8 36be a839 32be 3c6f 363d 2582 023e
00000130: 13b5 783d f8c2 3b3e a652 be3d 08c3 a33e
00000140: 4f8d 363d 7052 ec3c 1876 a9bd 6d56 743d
00000150: 17ab 983d 4452 e3bd 3b93 bbbd c227 c7bc
00000160: 7f69 81bd 7922 2c3d 75a8 10be c863 8cbc
00000170: d18f ae3d 0b2e a9bd c126 dfbb 7f2a 873d
00000180: feda cabb 3ea6 5e3d 035d 4cbd 1d24 f4bd
00000190: 67cb 24ba 27cd 333e 0135 59bd 95cf d33c
000001a0: 2cac 203e 22ad 31bc 762f e23c 8a92 ca3d
000001b0: 0a48 a13e 85c3 493e 5568 bfbd 1a76 44be
000001c0: 8624 bbbe c2ea 073e 72a7 92be f3df 0c3e
000001d0: 7b8d 673e e835 f6bd 9aae 903e 1b1c 75be
000001e0: 3e3f 8c3e 479c d83d 9e71 cfbd 5952 15be
000001f0: d980 e73d f2ed ae3c 0fa7 f1bd 2718 433e
00000200: da41 13be f828 743c ab51 58be 0655 e9bd
00000210: 1b95 10bd f39c 22be 9dd0 17bd b11b 73be
00000220: caa6 fe3d a858 0a3d ebef e83d 9b40 13be
00000230: 4157 003e 9baa f33d d314 15be ef27 933e
00000240: c8c2 d4bd 41be 5ebe e27f 2ebc 9ef8 93bd
00000250: 885e 6e3d 3301 cb3d bad6 b23e 78f6 7ebc
00000260: 3da1 8cbe 4244 6dbd 84fc 32bd 96e8 473c
00000270: c796 dc3d 6f66 013f 567f 7e3e aea5 3cbb
00000280: 877b b43d 8a9c f7bd 960f ecbc e50c cb3c
00000290: 7e48 29bb 4974 303e 7816 a33c 3c49 ebbe
000002a0: c7e2 333d 25a9 293e 12cf 66bd cba9 84bd
000002b0: 7afc d4bd 9e09 4e3d 00a7 46bb 3203 18be
000002c0: 054d 953d 6c9f 88bc ea39 aabc da1c 9bbd
000002d0: 03a6 9d3d 3262 0f3e c922 dcbc d25a 213d
000002e0: 8f1e 82bd 613b a13e 34f8 8dbe 7044 813e
000002f0: dfa9 d8bd 7831 883d 5e16 59be 4b77 983e
00000300: c8bc ed3c 5578 5abc 6757 3f3e f728 8bbe
00000310: 10a5 76bd c9c6 973d 8b48 8bbe 2346 313e
00000320: d4d1 b9bd 7c2e 473c d7ab 0a3c e73e f63d
00000330: a2f5 bd3d 9ed9 a43e 555d fc3d 0f35 3fbe
00000340: 0fd8 40bc 84aa 293e 0181 50be ac16 153e
00000350: 76c1 d73d dadb 96bd d556 a4bd ffad a53e
00000360: 8094 0dbe 88ed 11bd 5455 3b3e a4d8 cdbc
00000370: 3952 56bc 35fd 9e3d 91c0 a2bd 43e2 813e
00000380: 4c57 d63c 6a15 6ebd 3e59 1cbe dafe 9bbd
00000390: f87a 5fbd f23e cb3d 2454 88be 10d0 403e
000003a0: 391f 1f3e 0217 d73d b6e0 56bd f13f 013e
000003b0: 694b 173d bd52 473e ede0 043f b258 1f3e
000003c0: 6600 48bd a971 a1bb ec5c 923e d658 29be
000003d0: c8b6 8cbe e1c9 523d 0d1b 743d 0967 053e
000003e0: 76e0 d0bf bf5d f53e 746a 60bd 350c 813e
000003f0: 079b d33a 476b 19bf c6f3 c537 3d3b 083e
0.49010795 0.08478553 -0.058173418 0.07647004 0.08917197 0.26379958 0.03106898 -0.01578337
-0.041303694 -0.013152027 0.7070592 -0.20421112 0.063694 0.050767336 0.019700022 0.2604856
-0.13504098 -0.22599639 -0.06649182 -0.1531956 0.2621624 0.20961021 0.06310027 0.18420868
-0.09898806 -0.07686968 -0.022254245 0.29744533 0.0028149714 -0.035799976 -0.29302692 -0.46376672
0.032921843 -0.041221153 0.06344462 0.23038624 0.082499646 -0.0068199136 0.038018417 0.032464806
0.03348856 -0.06855784 -0.008116944 -0.19284923 0.053495154 -0.13061231 -0.06950188 -0.0067809927
-0.045536354 0.13162163 0.123818025 -0.008663136 0.03686781 -0.014309416 0.15904039 -0.11160479
0.05734917 -0.18113577 0.16448808 -0.09384631 0.05869286 -0.07025204 -0.14531069 -0.087525025
-0.124261014 -0.09619237 -0.047088977 -0.05412267 0.15594286 -0.16868839 0.00954693 -0.039174132
-0.17868239 -0.17404807 0.044539675 0.12744959 0.06071956 0.18336093 0.09293108 0.31984735
0.044568356 0.028847903 -0.08274478 0.059652735 0.07454508 -0.11099675 -0.09158941 -0.02431095
-0.0631895 0.042025063 -0.14126761 -0.017137423 0.085235246 -0.08260735 -0.0068100397 0.06599902
-0.0061906567 0.05435776 -0.04989339 -0.119209506 -0.0006286413 0.17558728 -0.053029064 0.025855819
0.15690678 -0.010844501 0.027610522 0.09891231 0.31500274 0.19703491 -0.09346072 -0.19185677
-0.36551303 0.13273147 -0.28643376 0.13757305 0.22612564 -0.120220006 0.2825821 -0.23936503
0.27392 0.105766825 -0.10129093 -0.14582194 0.113038726 0.021353696 -0.11799442 0.19052182
-0.14380589 0.014902346 -0.21124904 -0.1139317 -0.035298448 -0.15880184 -0.037064184 -0.23741032
0.12434156 0.033775955 0.11373886 -0.14380114 0.12533285 0.11897775 -0.14558725 0.28741404
-0.10388714 -0.21752264 -0.010650607 -0.07225154 0.05819562 0.09912338 0.34929448 -0.015561692
-0.27466765 -0.057926424 -0.04369785 0.012201449 0.10770946 0.50546926 0.24853262 -0.0028785276
0.088126235 -0.12090404 -0.028816026 0.024786422 -0.0025830562 0.1723186 0.019908175 -0.4595431
0.043917444 0.1656843 -0.05634982 -0.06477698 -0.103997186 0.05030214 -0.0030311942 -0.14844969
0.07290081 -0.01667758 -0.020779569 -0.075738624 0.0769768 0.14002302 -0.026872056 0.039393254
-0.06353485 0.31490615 -0.27728426 0.25247526 -0.10579275 0.066500604 -0.21199939 0.29778513
0.029020682 -0.013334353 0.18685685 -0.2717969 -0.06021601 0.07410962 -0.27203783 0.17311911
-0.09073225 0.012157079 0.008463821 0.120237164 0.09275366 0.3219728 0.12322489 -0.18672584
-0.011770262 0.16568953 -0.20361711 0.1455943 0.105349466 -0.07366152 -0.080243744 0.3235931
-0.1382618 -0.035626918 0.18294269 -0.025127716 -0.013081127 0.07763139 -0.079468854 0.25367936
0.026164673 -0.05812589 -0.15268418 -0.076169685 -0.05456063 0.09924115 -0.26626694 0.1882937
0.15539254 0.10502435 -0.052460395 0.12622048 0.03693715 0.19465156 0.5190571 0.15561178
-0.048828505 -0.0049268794 0.2858652 -0.16537794 -0.274832 0.051462058 0.05959611 0.13027586
-1.63185 0.47923085 -0.05478902 0.25204626 0.0016144224 -0.5992932 2.3597746e-05 0.13303848

targetconv1d.bias f4 [4]
00000000: 26dc 163f a206 96bd 4688 44be ab50 b0bf
0.5892967 -0.07325484 -0.19192609 -1.3774618

linearlayer.FC1.weight f4 [32, 128]
00000000: ef70 7fbf 9a3b 69be 83a0 b4be 5b66 82bf
00000010: 3c37 7fbf 44d0 46be 54d3 18bf e967 94bf
00000020: a145 09bf b47f 76bf 5902 febd 83fd 75bf
00000030: 2ef3 bbbc 3ad5 43bf 3223 23bf 8d42 3c3e
00000040: c7d6 1bbf 55c1 6b3e 7285 ddbb 2089 d83e
00000050: c00b b03e cbe1 bc3f 00e1 00be 308a c63e
00000060: bd28 c2bd b1c5 063f 5286 5d3e 2a1e 2fbf
00000070: fce7 04be 924a 813f 474e e73d c3f7 443f
00000080: 69fa b53f 0368 56bd b534 973f 0004 97be
00000090: f33e 0cbf ce9d bbbf b488 fabe b8e9 173f
000000a0: 8c16 073f 0ab7 aabe 0f1d 893e 32e7 0bbf
000000b0: 6b9a 2e3f 3828 4cbe 6406 9bbf 642a 263e
000000c0: f3df 90bf fbb5 e03f cd16 58bf 6638 7abf
000000d0: eab7 a6be d0d3 3f3f 2c26 c33e 3759 f6be
000000e0: 93aa cabe a1be 5cbf c7d9 c1be aed1 733d
000000f0: bc54 843e 9768 4d3f a1b3 63be 79cc a5bf
00000100: f189 71bd 69c7 33be d9ed 9b3d 97db dd3e
00000110: 2a1b 433f ff2c 723f 1b0d 363f 7236 053f
00000120: d15c 8fbf caaa 723d 5a10 48bd e425 4bbe
00000130: ba28 253d 13d3 623e 8b41 fabe 084e 163e
00000140: 5f6c 123d 83c3 75bd 456f 5fbe 3098 15be
00000150: e1ba 253f ec35 8c3e 95d0 a3bd 4a90 42bf
00000160: 2574 a2be 71a1 423f 4a8d bb3e 2053 f339
00000170: 13c5 723e 417b 05be 7203 c33e 970d bd3c
00000180: 5055 453f 8ca6 043e e885 6abc 4b22 e63e
00000190: 66aa 05be 7194 bc3d 2047 3ebc 8d6b 84bf
000001a0: 02c9 fc3d 48b5 cc3e 2310 e83e 76dd 423f
000001b0: 3704 1b3f 31e2 a83e 49f7 0c3e 09cd a0be
000001c0: f925 5c3f dc58 7cbd 69ff 3ebf 6152 8bbd
000001d0: b45a 433e 5f6b 3cbe 0b36 99be 4d32 5a3e
000001e0: ea93 793d e3de 4c3f 9f4a af3e 18f0 a43e
000001f0: d1d1 843f 8303 d93e e749 753f 5de0 403e
00000200: deb4 69bf adfd c4bf 9dc3 0bbf a833 063f
00000210: c182 5bbf 6894 1e3f b6f0 b9bf a8d6 c8bf
00000220: d449 f2bf d8ca b1bf 5be5 b7be 8ec8 a3bf
00000230: 173b f2bf 7fe0 d8bf 0402 1040 f3b0 05c0
00000240: 45ce 5a3e 1c15 f9be 1c6e 813f bbfe 1540
00000250: 352f 0d40 54ba b6bf 8cda a33f 13ae bd3f
00000260: bfe1 b03f 6b6d 2f3f 1be6 153e 18b2 9f40
00000270: 357e e5bd a650 63bf f3e7 8b3f 854d 22bf
00000280: 9758 17c0 9706 7abf 67bc 73bf 7d12 44c0
00000290: c5fd d5bd ff29 f9bc e6ba 1740 4214 09bc
000002a0: 417b f5bf ae53 08bf dee2 86bf d7ff 30bf
000002b0: 4bfe 883f 1a21 a23f b005 97bf f42e 34bf
000002c0: f9db 4340 57ae 90bf d846 aa3d 0f50 8abe
000002d0: 2590 4abf a9d2 cdbd 43f9 a63f f895 54bf
000002e0: 7d81 7e3d 3025 1dbf 02ee b8bd ed25 4dbe
000002f0: 1ee6 08bf 52a7 b1bf 8bfa 293f b39c 663f
00000300: 7b2e 7bbf a78f 9ebf b6da b4bf 9b74 9f3e
00000310: 23be aebe 6d56 65c0 e2dd 5ac0 7cf0 863e
00000320: 51d3 79bd f3fb 2d40 7c68 dabe 73e0 89bf
00000330: 4346 183f ae7a 88bf e688 f7be a6c7 243f
00000340: ed37 a33e 5f12 cfbf b9b8 b5bf 064d d13d
00000350: f282 1940 1695 d23e 887e dbbf e8d4 0dbf
00000360: 20eb a3bf 37c7 a8be bcd7 883e 37e1 293f
00000370: f7b7 8f3f 6bfa 303e e755 273e caa6 243c
00000380: 9b48 a13f 9dc1 1a3f e027 74bf e252 b3bf
00000390: 49ca 7abf 95b6 1bc0 ff37 bb3f b597 5940
000003a0: 7878 0dc0 b9f5 3fc0 c4b4 10be 318f ed3e
000003b0: 1097 4ebf a99e 503f 6db4 8abf de1f 83bf
000003c0: 42ef 8bbd e009 efbe 9049 4f3f 3650 c9be
000003d0: 41d5 573f 98ac 7b3f c6c4 bc3d 69ad fa3d
000003e0: 8a04 9a3f ecd4 a53f 0d96 fb3f 588d a33f
000003f0: 7419 b83f a370 d6be 9384 493f 5200 db3e
-0.997817 -0.22776642 -0.3527871 -1.0187486 -0.99693656 -0.19415385 -0.5969746 -1.1594211
-0.5362187 -0.9628861 -0.124027915 -0.96089953 -0.022943106 -0.7649723 -0.6372558 0.18384762
-0.608746 0.23022969 -0.0067602927 0.42292118 0.34383965 1.4756407 -0.1258583 0.38777304
-0.094804265 0.52645403 0.2163327 -0.684054 -0.1297912 1.0100882 0.11294227 0.76940554
1.4217044 -0.052345287 1.181296 -0.2949524 -0.5478355 -1.4657533 -0.4893242 0.59341
0.5276878 -0.33342773 0.26779982 -0.5464965 0.68204373 -0.19937217 -1.2111325 0.16227108
-1.1318344 1.7555536 -0.8440979 -0.9774231 -0.3256219 0.74932575 0.3811506 -0.4811494
-0.39583263 -0.86228377 -0.37861463 0.059526138 0.25845897 0.80237716 -0.22236492 -1.2953025
-0.05896944 -0.17556538 0.07613725 0.43331596 0.76213324 0.9459991 0.7111375 0.520362
-1.12002 0.05924491 -0.04884372 -0.19838673 0.040322043 0.22150831 -0.4887813 0.14678204
0.035747882 -0.060000908 -0.2181979 -0.14608836 0.6473828 0.2738489 -0.07998768 -0.7600142
-0.31729236 0.7602759 0.36631233 0.00046410505 0.2370799 -0.13035299 0.38088566 0.02307777
0.770833 0.12954158 -0.014314152 0.44948038 -0.13053283 0.092080005 -0.011613637 -1.0345322
0.12343027 0.39982057 0.4532481 0.7611917 0.60553306 0.3298507 0.13766207 -0.3140643
0.8599544 -0.06160818 -0.74608475 -0.06802822 0.19077569 -0.18400334 -0.29924044 0.2130825
0.060932077 0.800276 0.3423662 0.32214427 1.0376531 0.42385492 0.9581589 0.18835588
-0.91291606 -1.5389916 -0.5459536 0.5242257 -0.8574639 0.619452 -1.4526584 -1.5690508
-1.892878 -1.3890028 -0.35917172 -1.279558 -1.8924283 -1.6943511 2.250123 -2.0889251
0.21367748 -0.48648918 1.0111728 2.3436725 2.2060063 -1.4275613 1.280107 1.4818748
1.3818892 0.68526334 0.1463856 4.99049 -0.11205713 -0.88794935 1.093016 -0.63399535
-2.364782 -0.97666305 -0.95209354 -3.0636284 -0.10448793 -0.030415533 2.3707824 -0.008366646
-1.9178239 -0.53252685 -1.0537984 -0.6914038 1.0702604 1.2666352 -1.1798611 -0.70384145
3.060301 -1.1303204 0.083142936 -0.27014205 -0.791262 -0.10049946 1.3044819 -0.83041334
0.06213521 -0.6138487 -0.090297714 -0.20033999 -0.5347613 -1.3879187 0.66397923 0.90082854
-0.981178 -1.2387589 -1.4129245 0.3114365 -0.34129438 -3.5834 -3.4197927 0.2635535
-0.060992543 2.7185028 -0.4265784 -1.0771621 0.5948221 -1.0662439 -0.48346633 0.6436714
0.31878605 -1.6177481 -1.4196998 0.10219769 2.3986173 0.4112937 -1.7147989 -0.55402994
-1.280613 -0.3296449 0.26727092 0.66359276 1.1228017 0.17283027 0.16341363 0.010049531
1.2600282 0.6045168 -0.95373344 -1.4009669 -0.9796491 -2.433019 1.4626464 3.3998845
-2.2104778 -2.9993727 -0.14131457 0.4639831 -0.80699253 0.81492096 -1.0836312 -1.02441
-0.06832744 -0.46687222 0.8097162 -0.3931901 0.84309775 0.9831023 0.09217219 0.122401066
1.2032635 1.2955604 1.9655167 1.277751 1.4382768 -0.4188281 0.7871792 0.42773682

linearlayer.FC1.bias f4 [32]
00000000: 93df d9bf c7cf cdc0 7b74 a1bf ec66 81bf
00000010: d017 793f 95aa 6ec0 970e f73e cd2b 19c0
00000020: 49db 83bf 7704 fcbf 74fa bdbf aae9 cfbf
00000030: 3970 cabe 7e51 bcbf ded4 01bf dc42 ccbf
00000040: 4d1b c0c0 6e7e ee3e 45e7 fc3d 6e7e 41c0
00000050: 91f8 953f 0c4c 21c0 87dd 19bf 0011 0cc0
00000060: d70a 6c3e 3072 b3bf ee05 9cbf 0a91 9abf
00000070: d803 69c0 c537 2bbf 7793 bbbf 3c66 d3bf
-1.7021354 -6.4316134 -1.2613672 -1.0109534 0.9730196 -3.7291615 0.4825332 -2.3932984
-1.0301296 -1.9688863 -1.4842057 -1.6243184 -0.39538744 -1.471237 -0.50715435 -1.5957904
-6.0033326 0.46580833 0.12348799 -3.0233417 1.1716481 -2.5202665 -0.6010365 -2.1885376
0.2305101 -1.4019222 -1.218931 -1.2075512 -3.6408596 -0.6688197 -1.4654378 -1.6515574

linearlayer.FC2.weight f4 [1, 32]
00000000: a702 24bd 3546 79be 8e89 2b3d 77e6 89bc
00000010: 38dc 923d c0f9 a03b a74d 5c3d d104 74bd
00000020: 91ed 35bd 01bc 113d b0fc 603d 1398 0a3d
00000030: a089 033d c50f 6dbd fec9 e6bc 90fe b2bc
00000040: c81e 24bf 2d6b 46bd 76d5 2c3d 38e0 5c3c
00000050: 52ce 4cbd 2043 e4bc 9c2d 08bd a6c0 0b3e
00000060: 6733 72bd f544 b23d b56c c4bc 5eed 8a3d
00000070: 3ed2 f13c 91b9 223d 6e8d ce3c 5bad 183d
-0.040041592 -0.24343188 0.04187923 -0.016833527 0.0717091 0.004912585 0.053784993 -0.059574906
-0.044416014 0.035579685 0.05492848 0.033836436 0.03211367 -0.057876367 -0.02817249 -0.0218499
-0.6410947 -0.048442055 0.04219576 0.013481192 -0.05000145 -0.027864039 -0.03324662 0.13647708
-0.059131052 0.08704559 -0.023977617 0.067835554 0.029519197 0.03972775 0.025213923 0.0372747
